RNN / Embed / Sent = <function <lambda> at 0x7f2f07fcdea0>, 300, 300
GloVe / Trainable Word Embeddings = False, True
Build model...
Vocab size = 11622
Model: "model_1"
__________________________________________________________________________________________________
Layer (type)                    Output Shape         Param #     Connected to                     
==================================================================================================
input_1 (InputLayer)            (None, 63)           0                                            
__________________________________________________________________________________________________
input_2 (InputLayer)            (None, 63)           0                                            
__________________________________________________________________________________________________
embedding_1 (Embedding)         (None, 63, 300)      3486600     input_1[0][0]                    
                                                                 input_2[0][0]                    
__________________________________________________________________________________________________
time_distributed_1 (TimeDistrib (None, 63, 300)      90300       embedding_1[0][0]                
                                                                 embedding_1[1][0]                
__________________________________________________________________________________________________
bidirectional_1 (Bidirectional) (None, 63, 600)      1442400     time_distributed_1[0][0]         
                                                                 time_distributed_1[1][0]         
__________________________________________________________________________________________________
batch_normalization_1 (BatchNor (None, 63, 600)      2400        bidirectional_1[0][0]            
__________________________________________________________________________________________________
batch_normalization_2 (BatchNor (None, 63, 600)      2400        bidirectional_1[1][0]            
__________________________________________________________________________________________________
bidirectional_2 (Bidirectional) (None, 63, 600)      2162400     batch_normalization_1[0][0]      
                                                                 batch_normalization_2[0][0]      
__________________________________________________________________________________________________
batch_normalization_3 (BatchNor (None, 63, 600)      2400        bidirectional_2[0][0]            
__________________________________________________________________________________________________
batch_normalization_4 (BatchNor (None, 63, 600)      2400        bidirectional_2[1][0]            
__________________________________________________________________________________________________
bidirectional_3 (Bidirectional) (None, 600)          2162400     batch_normalization_3[0][0]      
                                                                 batch_normalization_4[0][0]      
__________________________________________________________________________________________________
batch_normalization_5 (BatchNor (None, 600)          2400        bidirectional_3[0][0]            
__________________________________________________________________________________________________
batch_normalization_6 (BatchNor (None, 600)          2400        bidirectional_3[1][0]            
__________________________________________________________________________________________________
concatenate_1 (Concatenate)     (None, 1200)         0           batch_normalization_5[0][0]      
                                                                 batch_normalization_6[0][0]      
__________________________________________________________________________________________________
dropout_1 (Dropout)             (None, 1200)         0           concatenate_1[0][0]              
__________________________________________________________________________________________________
dense_2 (Dense)                 (None, 600)          720600      dropout_1[0][0]                  
__________________________________________________________________________________________________
dropout_2 (Dropout)             (None, 600)          0           dense_2[0][0]                    
__________________________________________________________________________________________________
batch_normalization_7 (BatchNor (None, 600)          2400        dropout_2[0][0]                  
__________________________________________________________________________________________________
dense_3 (Dense)                 (None, 600)          360600      batch_normalization_7[0][0]      
__________________________________________________________________________________________________
dropout_3 (Dropout)             (None, 600)          0           dense_3[0][0]                    
__________________________________________________________________________________________________
batch_normalization_8 (BatchNor (None, 600)          2400        dropout_3[0][0]                  
__________________________________________________________________________________________________
dense_4 (Dense)                 (None, 600)          360600      batch_normalization_8[0][0]      
__________________________________________________________________________________________________
dropout_4 (Dropout)             (None, 600)          0           dense_4[0][0]                    
__________________________________________________________________________________________________
batch_normalization_9 (BatchNor (None, 600)          2400        dropout_4[0][0]                  
__________________________________________________________________________________________________
dense_5 (Dense)                 (None, 600)          360600      batch_normalization_9[0][0]      
__________________________________________________________________________________________________
dropout_5 (Dropout)             (None, 600)          0           dense_5[0][0]                    
__________________________________________________________________________________________________
batch_normalization_10 (BatchNo (None, 600)          2400        dropout_5[0][0]                  
__________________________________________________________________________________________________
dense_6 (Dense)                 (None, 4)            2404        batch_normalization_10[0][0]     
==================================================================================================
Total params: 11,172,904
Trainable params: 11,160,904
Non-trainable params: 12,000
__________________________________________________________________________________________________
Training
Train on 2692 samples, validate on 769 samples
Epoch 1/42

 512/2692 [====>.........................] - ETA: 3:29 - loss: 1.9949 - accuracy: 0.2793
…
