RNN / Embed / Sent = <class 'keras.layers.recurrent.LSTM'>, 300, 300
GloVe / Trainable Word Embeddings = False, True
Build model...
Vocab size = 11622
Model: "model_1"
__________________________________________________________________________________________________
Layer (type)                    Output Shape         Param #     Connected to                     
==================================================================================================
input_1 (InputLayer)            (None, 42)           0                                            
__________________________________________________________________________________________________
input_2 (InputLayer)            (None, 42)           0                                            
__________________________________________________________________________________________________
embedding_1 (Embedding)         (None, 42, 300)      3486600     input_1[0][0]                    
                                                                 input_2[0][0]                    
__________________________________________________________________________________________________
time_distributed_1 (TimeDistrib (None, 42, 300)      90300       embedding_1[0][0]                
                                                                 embedding_1[1][0]                
__________________________________________________________________________________________________
lstm_1 (LSTM)                   (None, 42, 300)      721200      time_distributed_1[0][0]         
                                                                 time_distributed_1[1][0]         
__________________________________________________________________________________________________
batch_normalization_1 (BatchNor (None, 42, 300)      1200        lstm_1[0][0]                     
__________________________________________________________________________________________________
batch_normalization_2 (BatchNor (None, 42, 300)      1200        lstm_1[1][0]                     
__________________________________________________________________________________________________
lstm_2 (LSTM)                   (None, 42, 300)      721200      batch_normalization_1[0][0]      
                                                                 batch_normalization_2[0][0]      
__________________________________________________________________________________________________
batch_normalization_3 (BatchNor (None, 42, 300)      1200        lstm_2[0][0]                     
__________________________________________________________________________________________________
batch_normalization_4 (BatchNor (None, 42, 300)      1200        lstm_2[1][0]                     
__________________________________________________________________________________________________
lstm_3 (LSTM)                   (None, 300)          721200      batch_normalization_3[0][0]      
                                                                 batch_normalization_4[0][0]      
__________________________________________________________________________________________________
batch_normalization_5 (BatchNor (None, 300)          1200        lstm_3[0][0]                     
__________________________________________________________________________________________________
batch_normalization_6 (BatchNor (None, 300)          1200        lstm_3[1][0]                     
__________________________________________________________________________________________________
concatenate_1 (Concatenate)     (None, 600)          0           batch_normalization_5[0][0]      
                                                                 batch_normalization_6[0][0]      
__________________________________________________________________________________________________
dropout_1 (Dropout)             (None, 600)          0           concatenate_1[0][0]              
__________________________________________________________________________________________________
dense_2 (Dense)                 (None, 600)          360600      dropout_1[0][0]                  
__________________________________________________________________________________________________
dropout_2 (Dropout)             (None, 600)          0           dense_2[0][0]                    
__________________________________________________________________________________________________
batch_normalization_7 (BatchNor (None, 600)          2400        dropout_2[0][0]                  
__________________________________________________________________________________________________
dense_3 (Dense)                 (None, 600)          360600      batch_normalization_7[0][0]      
__________________________________________________________________________________________________
dropout_3 (Dropout)             (None, 600)          0           dense_3[0][0]                    
__________________________________________________________________________________________________
batch_normalization_8 (BatchNor (None, 600)          2400        dropout_3[0][0]                  
__________________________________________________________________________________________________
dense_4 (Dense)                 (None, 600)          360600      batch_normalization_8[0][0]      
__________________________________________________________________________________________________
dropout_4 (Dropout)             (None, 600)          0           dense_4[0][0]                    
__________________________________________________________________________________________________
batch_normalization_9 (BatchNor (None, 600)          2400        dropout_4[0][0]                  
__________________________________________________________________________________________________
dense_5 (Dense)                 (None, 600)          360600      batch_normalization_9[0][0]      
__________________________________________________________________________________________________
dropout_5 (Dropout)             (None, 600)          0           dense_5[0][0]                    
__________________________________________________________________________________________________
batch_normalization_10 (BatchNo (None, 600)          2400        dropout_5[0][0]                  
__________________________________________________________________________________________________
dense_6 (Dense)                 (None, 4)            2404        batch_normalization_10[0][0]     
==================================================================================================
Total params: 7,202,104
Trainable params: 7,193,704
Non-trainable params: 8,400
__________________________________________________________________________________________________
Training
Train on 2692 samples, validate on 769 samples
Epoch 1/42

 512/2692 [====>.........................] - ETA: 40s - loss: 1.9964 - accuracy: 0.2383
…
